backend: tensorflow
class_name: Sequential
config:
- class_name: Dense
  config:
    activation: linear
    activity_regularizer: null
    batch_input_shape: !!python/tuple [null, 136]
    bias_constraint: null
    bias_initializer:
      class_name: Zeros
      config: {}
    bias_regularizer: null
    dtype: float32
    kernel_constraint: null
    kernel_initializer:
      class_name: VarianceScaling
      config: {distribution: uniform, mode: fan_avg, scale: 1.0, seed: null}
    kernel_regularizer: null
    name: dense_1
    trainable: true
    units: 256
    use_bias: true
- class_name: LeakyReLU
  config: {alpha: 0.10000000149011612, name: leaky_re_lu_1, trainable: true}
- class_name: Dense
  config:
    activation: linear
    activity_regularizer: null
    bias_constraint: null
    bias_initializer:
      class_name: Zeros
      config: {}
    bias_regularizer: null
    kernel_constraint: null
    kernel_initializer:
      class_name: VarianceScaling
      config: {distribution: uniform, mode: fan_avg, scale: 1.0, seed: null}
    kernel_regularizer: null
    name: dense_2
    trainable: true
    units: 64
    use_bias: true
- class_name: LeakyReLU
  config: {alpha: 0.10000000149011612, name: leaky_re_lu_2, trainable: true}
- class_name: Dense
  config:
    activation: linear
    activity_regularizer: null
    bias_constraint: null
    bias_initializer:
      class_name: Zeros
      config: {}
    bias_regularizer: null
    kernel_constraint: null
    kernel_initializer:
      class_name: VarianceScaling
      config: {distribution: uniform, mode: fan_avg, scale: 1.0, seed: null}
    kernel_regularizer: null
    name: dense_3
    trainable: true
    units: 8
    use_bias: true
- class_name: LeakyReLU
  config: {alpha: 0.10000000149011612, name: leaky_re_lu_3, trainable: true}
- class_name: Dense
  config:
    activation: linear
    activity_regularizer: null
    bias_constraint: null
    bias_initializer:
      class_name: Zeros
      config: {}
    bias_regularizer: null
    kernel_constraint: null
    kernel_initializer:
      class_name: VarianceScaling
      config: {distribution: uniform, mode: fan_avg, scale: 1.0, seed: null}
    kernel_regularizer: null
    name: dense_4
    trainable: true
    units: 2
    use_bias: true
keras_version: 2.2.0
